…
locations: tensor([[0.0156, 0.0156],
        [0.0469, 0.0156],
        [0.0781, 0.0156],
        ...,
        [0.9219, 0.9844],
        [0.9531, 0.9844],
        [0.9844, 0.9844]], device='cuda:0')
Shape of x1 and x2 locations: torch.Size([1024]) torch.Size([1024])
####################################################################################################
BRANCH-NET SUMMARY:
----------------------------------------------------------------
        Layer (type)               Output Shape         Param #
================================================================
            Conv2d-1           [-1, 40, 30, 30]             400
              ReLU-2           [-1, 40, 30, 30]               0
         AvgPool2d-3           [-1, 40, 15, 15]               0
            Conv2d-4           [-1, 60, 13, 13]          21,660
              ReLU-5           [-1, 60, 13, 13]               0
         AvgPool2d-6             [-1, 60, 6, 6]               0
            Conv2d-7            [-1, 100, 4, 4]          54,100
              ReLU-8            [-1, 100, 4, 4]               0
         AvgPool2d-9            [-1, 100, 2, 2]               0
          Flatten-10                  [-1, 400]               0
           Linear-11                  [-1, 150]          60,150
             ReLU-12                  [-1, 150]               0
           Linear-13                  [-1, 150]          22,650
             ReLU-14                  [-1, 150]               0
           Linear-15                  [-1, 150]          22,650
================================================================
Total params: 181,610
Trainable params: 181,610
Non-trainable params: 0
----------------------------------------------------------------
Input size (MB): 0.00
Forward/backward pass size (MB): 0.83
Params size (MB): 0.69
Estimated Total Size (MB): 1.52
----------------------------------------------------------------
####################################################################################################
TRUNK-NET SUMMARY:
----------------------------------------------------------------
        Layer (type)               Output Shape         Param #
================================================================
            Linear-1                  [-1, 150]             450
              ReLU-2                  [-1, 150]               0
            Linear-3                  [-1, 150]          22,650
              ReLU-4                  [-1, 150]               0
            Linear-5                  [-1, 150]          22,650
              ReLU-6                  [-1, 150]               0
            Linear-7                  [-1, 150]          22,650
              ReLU-8                  [-1, 150]               0
            Linear-9                  [-1, 150]          22,650
             ReLU-10                  [-1, 150]               0
           Linear-11                  [-1, 150]          22,650
================================================================
Total params: 113,700
Trainable params: 113,700
Non-trainable params: 0
----------------------------------------------------------------
Input size (MB): 0.00
Forward/backward pass size (MB): 0.01
Params size (MB): 0.43
Estimated Total Size (MB): 0.45
----------------------------------------------------------------
####################################################################################################
…
